MLP(
  (linear): Sequential(
    (0): Linear(in_features=1024, out_features=1000, bias=True)
    (1): ReLU(inplace=True)
    (2): Linear(in_features=1000, out_features=1000, bias=True)
    (3): ReLU(inplace=True)
  )
  (last): ModuleDict(
    (1): Linear(in_features=1000, out_features=10, bias=True)
    (2): Linear(in_features=1000, out_features=10, bias=True)
    (3): Linear(in_features=1000, out_features=10, bias=True)
    (4): Linear(in_features=1000, out_features=10, bias=True)
    (5): Linear(in_features=1000, out_features=10, bias=True)
    (6): Linear(in_features=1000, out_features=10, bias=True)
    (7): Linear(in_features=1000, out_features=10, bias=True)
    (8): Linear(in_features=1000, out_features=10, bias=True)
    (9): Linear(in_features=1000, out_features=10, bias=True)
    (10): Linear(in_features=1000, out_features=10, bias=True)
  )
)
#parameter of model: 2126100
Task order: ['1', '2', '3', '4', '5', '6', '7', '8', '9', '10']
Epoch:0
LR: 0.0001
Itr		Time		  Data		  Loss		Acc
[0/4688]	0.5630 (0.5630)	0.1174 (0.1174)	2.304 (2.304)	13.33 (11.72)
[100/4688]	0.0110 (0.0169)	0.0007 (0.0019)	1.000 (1.694)	55.56 (59.09)
[200/4688]	0.0111 (0.0141)	0.0008 (0.0013)	0.617 (1.223)	92.86 (70.25)
…
